…
          [0.0000, 0.0000, 0.0000,  ..., 0.0000, 0.0000, 0.0000],
          [0.0000, 0.0000, 0.0000,  ..., 0.0000, 0.0000, 0.0000],
          [0.0000, 0.0000, 0.0000,  ..., 0.0000, 0.0000, 0.0000]]]],
       device='cuda:4')
tensor([[nan, nan, nan,  ..., nan, nan, nan],
        [nan, nan, nan,  ..., nan, nan, nan],
        [nan, nan, nan,  ..., nan, nan, nan],
        ...,
        [nan, nan, nan,  ..., nan, nan, nan],
        [nan, nan, nan,  ..., nan, nan, nan],
        [nan, nan, nan,  ..., nan, nan, nan]], device='cuda:4',
       grad_fn=<TanhBackward0>)
torch.Size([256, 4, 96, 96])
Sequential(
  (0): Conv2d(4, 32, kernel_size=(5, 5), stride=(1, 1))
  (1): BatchNorm2d(32, eps=1e-05, momentum=0.1, affine=True, track_running_stats=True)
  (2): ReLU(inplace=True)
  (3): Conv2d(32, 64, kernel_size=(5, 5), stride=(1, 1))
  (4): BatchNorm2d(64, eps=1e-05, momentum=0.1, affine=True, track_running_stats=True)
  (5): ReLU(inplace=True)
  (6): MaxPool2d(kernel_size=2, stride=2, padding=0, dilation=1, ceil_mode=False)
  (7): Conv2d(64, 64, kernel_size=(5, 5), stride=(1, 1))
  (8): BatchNorm2d(64, eps=1e-05, momentum=0.1, affine=True, track_running_stats=True)
  (9): ReLU(inplace=True)
  (10): Conv2d(64, 128, kernel_size=(5, 5), stride=(1, 1))
  (11): BatchNorm2d(128, eps=1e-05, momentum=0.1, affine=True, track_running_stats=True)
  (12): ReLU(inplace=True)
  (13): MaxPool2d(kernel_size=2, stride=2, padding=0, dilation=1, ceil_mode=False)
  (14): Conv2d(128, 128, kernel_size=(5, 5), stride=(1, 1))
  (15): BatchNorm2d(128, eps=1e-05, momentum=0.1, affine=True, track_running_stats=True)
  (16): ReLU(inplace=True)
  (17): Conv2d(128, 128, kernel_size=(5, 5), stride=(1, 1))
  (18): BatchNorm2d(128, eps=1e-05, momentum=0.1, affine=True, track_running_stats=True)
  (19): ReLU(inplace=True)
  (20): AdaptiveAvgPool2d(output_size=1)
)
Traceback (most recent call last):
  File "/home/l.callisti/Distillation_LunarLander/Final_pipeline/CarRacing.py", line 116, in <module>
    Train_teacher()
  File "/home/l.callisti/Distillation_LunarLander/Final_pipeline/CarRacing.py", line 112, in Train_teacher
…
