…
/home/l.callisti/Distillation/distillation/lib/python3.10/site-packages/gymnasium/wrappers/rendering.py:283: UserWarning: [33mWARN: Overwriting existing videos at /home/l.callisti/Distillation_LunarLander/Final_pipeline/Results/CarRacing/PPO/Teacher/videos/PPO_CarRacing_Teacher_GroupNorm folder (try specifying a different `video_folder` for the `RecordVideo` wrapper if this is not desired)[0m
  logger.warn(
> /home/l.callisti/Distillation_LunarLander/Final_pipeline/Test_model.py(60)test_model()
-> action, log_prob_A, entropy = take_action(model_A, done, info)
tensor([[… device='cuda:4')
Agent(
  (cnn_backbone): Sequential(
    (0): Conv2d(4, 32, kernel_size=(5, 5), stride=(1, 1))
    (1): GroupNorm(8, 32, eps=1e-05, affine=True)
    (2): ReLU(inplace=True)
    (3): Conv2d(32, 64, kernel_size=(5, 5), stride=(1, 1))
    (4): GroupNorm(16, 64, eps=1e-05, affine=True)
    (5): ReLU(inplace=True)
    (6): MaxPool2d(kernel_size=2, stride=2, padding=0, dilation=1, ceil_mode=False)
    (7): Conv2d(64, 64, kernel_size=(5, 5), stride=(1, 1))
    (8): GroupNorm(16, 64, eps=1e-05, affine=True)
    (9): ReLU(inplace=True)
    (10): Conv2d(64, 128, kernel_size=(5, 5), stride=(1, 1))
    (11): GroupNorm(32, 128, eps=1e-05, affine=True)
    (12): ReLU(inplace=True)
    (13): MaxPool2d(kernel_size=2, stride=2, padding=0, dilation=1, ceil_mode=False)
    (14): Conv2d(128, 128, kernel_size=(5, 5), stride=(1, 1))
    (15): GroupNorm(32, 128, eps=1e-05, affine=True)
    (16): ReLU(inplace=True)
    (17): Conv2d(128, 128, kernel_size=(5, 5), stride=(1, 1))
    (18): GroupNorm(32, 128, eps=1e-05, affine=True)
    (19): ReLU(inplace=True)
    (20): AdaptiveAvgPool2d(output_size=1)
  )
  (critic): Sequential(
    (0): Linear(in_features=128, out_features=128, bias=True)
    (1): Tanh()
    (2): Linear(in_features=128, out_features=128, bias=True)
    (3): Tanh()
    (4): Linear(in_features=128, out_features=1, bias=True)
  )
  (actor_backbone): Sequential(
    (0): Linear(in_features=128, out_features=128, bias=True)
    (1): Tanh()
    (2): Linear(in_features=128, out_features=128, bias=True)
    (3): Tanh()
  )
  (mu_layer): Linear(in_features=128, out_features=3, bias=True)
  (log_std_param): Linear(in_features=128, out_features=3, bias=True)
)
'Image'
torch.Size([10, 1, 96, 96])
*** NameError: name 'model' is not defined
tensor([[[[0., 0., 0.,  ..., 0., 0., 0.],
          [0., 0., 0.,  ..., 0., 0., 0.],
          [0., 0., 0.,  ..., 0., 0., 0.],
          ...,
          [0., 0., 0.,  ..., 0., 0., 0.],
          [0., 0., 0.,  ..., 0., 0., 0.],
          [0., 0., 0.,  ..., 0., 0., 0.]],

         [[0., 0., 0.,  ..., 0., 0., 0.],
…
